saved/saved_model.pkl (torch_old, 81851 bytes, 7 tensors)

layer_1.weight f4 [12, 6]
000000 72 76 e3 bd 89 77 43 bf 37 9a 94 bd e4 1f 59 3a
       -0.11106576 -0.7635427 -0.07255977 0.0008282645
000010 32 b0 ef 3d b4 34 b0 3e 27 df ff 3c 4c 8e e3 3e
       0.117035285 0.3441521 0.031234337 0.444445
000020 80 06 a1 be e4 b2 a9 3d 34 48 c9 3e 49 73 04 3d
       -0.31450272 0.08286074 0.393129 0.032336507
000030 39 9a 32 3e b9 cd 31 be 16 eb 73 3e e1 40 56 bf
       0.17441644 -0.17363633 0.23820147 -0.8369275
000040 a1 b5 4b bc 40 50 53 be 98 9e 11 3e ae 8f 23 be
       -0.01243344 -0.20636082 0.14220655 -0.15972778
000050 4a 62 fe 3d ec dd b0 be a2 47 b2 be 86 a1 a9 3d
       0.12421091 -0.34544313 -0.34820276 0.08282761
000060 ef 0f 87 be 8a bc 35 bd 67 4e 66 bb 0a c4 4c 3e
       -0.26379344 -0.044369258 -0.0035141946 0.19996658
000070 ea ad 8d be 22 b4 67 bd 19 78 bd be 21 67 b3 3e
       -0.27671748 -0.056568272 -0.3700569 0.3503962
000080 39 87 54 3f a0 9a 4a 3f e7 27 a8 be 15 7e 3b 3e
       0.83018833 0.7914219 -0.32842943 0.18309815
000090 74 ee d4 bd 57 46 ad be 1f bd 1b 3f 5b 70 20 3f
       -0.10397044 -0.33842728 0.6083545 0.6267144
0000a0 94 af 2f 3e a2 96 ac 3e d8 91 f3 bc ab 3c 1c 3e
       0.17156821 0.33708674 -0.02973263 0.15257518
0000b0 33 39 93 3e 37 f9 9b be eb 8f 3f bf 7e 3b f3 be
       0.28754577 -0.30463573 -0.74828976 -0.47506326
0000c0 21 99 ae be dc 3d a3 be 75 0d 98 3d 1d da 2b 3d
       -0.34101203 -0.31883132 0.07424442 0.041956056
0000d0 59 ea b8 be bc 1b 09 3e 56 75 a8 be 9d 0f 91 bf
       -0.36116293 0.13389486 -0.3290202 -1.133289
0000e0 77 00 ad be 7b 3b bb 3e 64 47 9c 3e d1 26 21 3f
       -0.33789417 0.36568817 0.30523217 0.62949854
0000f0 7a d8 80 be 70 75 57 be 67 fc 21 bf a1 24 27 3f
       -0.2516516 -0.21040893 -0.6327576 0.65290266
000100 c9 39 8d 3e f2 5b c0 3e 22 39 89 be dc 38 d0 3d
       0.2758315 0.3757015 -0.268014 0.10167095
000110 79 e2 cb be 54 32 ee 3d 24 f6 79 3d 0b ad f9 3d
       -0.39821222 0.11630693 0.061025754 0.121912085

layer_1.bias f4 [12]
000000 97 f2 68 3e 90 7b e1 3d 77 b9 e2 3e 69 fb 42 be
       0.2274879 0.11009896 0.44282123 -0.19041218
000010 e6 a9 68 be 7e 9f 88 be c5 6f a8 be 4a ed bd 3e
       -0.22721061 -0.26684183 -0.32897773 0.370951
000020 d4 12 90 be 6e 24 5b 3d 73 18 17 be 45 de eb bc
       -0.28139365 0.05350154 -0.1475542 -0.02879251

layer_2.weight f4 [96, 12]
000000 6c aa f3 bd d4 6f 84 3d b8 25 99 be 25 f9 25 be
       -0.1189774 0.06466642 -0.2991159 -0.16208322
000010 8b 78 9e bd 7f 97 e4 bc dd 08 b4 bd 15 87 87 3e
       -0.077378355 -0.02790427 -0.08790753 0.26470247
000020 e5 94 bf 3d 0a 00 92 3e 9d dd 54 be f0 5e f0 3d
       0.09354571 0.28515655 -0.20787664 0.11736858
000030 59 25 80 bd 29 87 45 be 2f 31 59 3e 4b 4d 59 be
       -0.062571235 -0.19289841 0.21210168 -0.21220891
000040 cf b7 0e bd 28 b4 3a 3d d9 01 39 be 4a bf 1f 3e
       -0.034843262 0.045581967 -0.18067111 0.15600315
000050 a4 3f 91 be b1 b2 72 3e 87 ec dd bd 3d 64 76 be
       -0.28368866 0.23700978 -0.1083613 -0.24061675
000060 cc 38 8e be 78 e9 89 bd 42 82 c6 bc 2b 8d 1f 3e
       -0.27777708 -0.06733984 -0.024232034 0.15581195
000070 48 7a 19 3e b1 d4 2e 3e f1 79 af be 91 c6 6b 3e
       0.14988053 0.17073323 -0.3427272 0.23024966
000080 b6 79 82 be 82 6b 00 be 51 19 23 bc b4 db 0a 3e
       -0.25483483 -0.12541011 -0.009954766 0.13560373
000090 24 c7 62 bd 65 18 9f 3d 57 d9 56 3e 2d 63 93 be
       -0.055365697 0.07768325 0.20981346 -0.28786603
0000a0 7e 87 6c be 1a 9a 6f 3c a0 0e 54 be af fd 4f 3e
       -0.23098561 0.014624143 -0.20708704 0.20311616
0000b0 2e 12 8d 3e 0d db 76 bd 67 21 c4 3d db 53 a4 bc
       0.27552933 -0.060267497 0.095766835 -0.020059517
0000c0 53 9a 19 be ca f4 41 3e 9a 81 3e 3c cc dd 2b be
       -0.15000276 0.18941036 0.011627579 -0.16783828
0000d0 44 a6 3a 3d 51 f7 87 3e aa af 6e be 1d 91 6a bd
       0.04556872 0.26555875 -0.23309198 -0.057267297
0000e0 e0 63 1b 3e 6b 06 63 be 0b a5 92 be 22 83 7f 3e
       0.15174818 -0.22170417 -0.28641543 0.24952367
0000f0 92 7a 6c 3e f5 36 a5 be 87 95 7b 3e b3 5a 64 be
       0.23093632 -0.3226849 0.24568759 -0.22300224
000100 ce c0 39 be 04 21 9a bd 25 33 e0 bd 16 3f 29 be
       -0.18139955 -0.075258285 -0.10947255 -0.16527972
000110 97 48 48 be ef fd 28 3e 62 26 6b 3e ec 3b b4 3b
       -0.19558941 0.16503118 0.2296386 0.0055003073
000120 55 d4 07 bd d8 35 35 bd 41 34 ce 3d 5b 3b e0 bd
       -0.03316148 -0.044240803 0.100685604 -0.10948821
000130 df 22 f9 bc 50 3a c6 bd fb 8a 9b be 90 60 a5 3e
       -0.030412136 -0.09679091 -0.3037947 0.32300234
000140 aa 2b b4 3d de 5d 86 3e 46 b9 8a 3e ff b1 4b be
       0.08797391 0.2624349 0.27094477 -0.19892119
000150 37 f9 d8 be 84 14 8d bc b5 e1 24 be 07 e7 81 be
       -0.42377636 -0.017221697 -0.16101725 -0.25371572
000160 89 ee 80 bc 66 8c 8e 3e a1 8a 8e 3e f5 49 d8 be
       -0.015738742 0.2784149 0.2784014 -0.42243925
000170 b7 e1 3d bd 4b 23 ef be c5 2c 74 be 78 83 3c be
       -0.046357837 -0.46706614 -0.23845203 -0.18409526
000180 57 8f f1 bd 08 a0 f7 bc 8f 17 6c be 07 72 8a 3e
       -0.11794918 -0.030227676 -0.23055862 0.2704012
000190 65 56 ef 3d 18 06 63 3e 6b 8c 26 3e 1c d0 00 3e
       0.116864 0.22170293 0.16264503 0.12579387
0001a0 eb a3 2b 3e 9c 47 9a 3e 10 54 a5 3d 6b 06 8a be
       0.16761748 0.3013276 0.08072674 -0.26958022
0001b0 d5 34 43 be 3f a6 21 3e 12 d4 cb bd 5b 59 70 be
       -0.19063123 0.15786074 -0.099525586 -0.23471586
0001c0 70 4c 1c be 32 ac 28 be 1f dc 3b bd 36 d9 9b 39
       -0.15263534 -0.16471937 -0.04586422 0.0002972574
0001d0 77 f6 56 bd 00 62 41 be 5c c3 82 be 32 41 6e bd
       -0.05248114 -0.1888504 -0.25539672 -0.058167644
0001e0 f9 dc 03 3e 8d ec 97 3e 5e 60 c7 bd 31 14 1b bc
       0.12877263 0.2967266 -0.097351775 -0.009465263
0001f0 01 73 93 3e e8 8a 9f be 84 c9 0b 3e 49 85 34 3e
       0.2879868 -0.31160665 0.13651091 0.17628969
000200 f8 5d b7 3c 4f 47 36 bd 5f 49 3b 3c 30 e1 06 3e
       0.022383675 -0.0445016 0.011431067 0.1317184
000210 74 51 90 3e 31 74 83 3e da fc 89 3e 3c 6e 5d 3e
       0.28187144 0.25674585 0.26950723 0.21624082
000220 4d 79 10 3e 33 51 33 3d 43 4f 1a bd a4 09 85 be
       0.14108773 0.04377861 -0.037673246 -0.25983918
000230 ed 44 85 3d d6 96 36 bd 82 eb 56 be af bc 42 be
       0.06507287 -0.044577442 -0.20988277 -0.1901729
000240 14 b6 02 3d 51 4e 22 3e 31 05 87 bd dc c7 2f be
       0.031911924 0.15850188 -0.06592787 -0.17166084
000250 7a d6 23 bc e4 9b b3 3c f6 a5 d8 3d 19 f1 0f 3e
       -0.009999866 0.02192492 0.105785295 0.14056815
000260 83 59 0f 3e d6 b7 9c bc a0 cd 6b be f7 10 48 be
       0.1399899 -0.019130629 -0.23027658 -0.19537722
000270 31 50 5c ba 76 9f 84 3d 70 e2 55 be de 5e 03 3d
       -0.00084042834 0.06475727 -0.2088716 0.032072894
000280 d5 0d a8 bb 5b 05 5e 3d f9 38 db 3c 20 5c fe 3d
       -0.005128602 0.054204326 0.026760565 0.12419915
000290 4f 9e 3c 3e 99 c6 39 be 91 d2 c3 bd d6 da b5 bd
       0.18419765 -0.18142165 -0.09561647 -0.0887963
0002a0 bc a3 77 3e e2 01 60 3d bc a5 4d 3e 15 38 ee 3d
       0.24183553 0.054689296 0.20082754 0.116317905
0002b0 1b 0f b9 3d 8b 1a a6 3d e3 55 3b 3e bf b2 59 be
       0.09036084 0.081105314 0.18294482 -0.21259592
0002c0 58 99 4f bd 81 eb 60 3d 70 a1 72 be ec d9 5e be
       -0.05068335 0.054912094 -0.23694396 -0.21762818
0002d0 b4 b2 cf bd 49 c4 8a be 7f b2 56 be 54 db 87 be
       -0.10141507 -0.2710288 -0.20966528 -0.26534522
0002e0 77 b6 39 3e 43 9f 41 be d5 f3 13 be fb 88 61 be
       0.18136011 -0.1890841 -0.14448483 -0.2202491
0002f0 e6 68 35 3b 2a f4 a9 3d cf 62 36 be 26 21 4a 3e
       0.0027680933 0.08298524 -0.1781113 0.19739208
000300 16 6c ce 3d 84 b1 20 be 59 f5 8b 3e 36 2e 78 3e
       0.100792095 -0.15692717 0.27335623 0.24236378
000310 70 32 8a be d6 d3 8b be 9b 51 33 be de 41 c1 3d
       -0.26991606 -0.27310055 -0.17511599 0.09436391
000320 fe bb 28 3e cf 4e 19 3e 6d b5 f5 3d dd 5d 05 be
       0.16477963 0.1497147 0.11997495 -0.13024087
000330 2c c5 d0 3c 9b d7 64 3e 86 82 60 3e c0 9f 29 3e
       0.025484644 0.22347872 0.2192479 0.16564846
000340 6e c6 65 be 1b b0 66 be 48 13 07 3e 0c d9 6f be
       -0.22438976 -0.22528116 0.13190949 -0.2342264
000350 9a 7e 8e 3e 36 0f 92 be 07 11 03 3e 67 73 80 3e
       0.27830964 -0.2852723 0.12799464 0.25088045
000360 b5 ba e5 3d df 08 8e 3d a8 49 e1 3d 6c d3 67 3d
       0.11217252 0.06935286 0.11000377 0.056598112
000370 68 f1 7e 3e c7 36 2e 3e ed d7 d9 3d 1f 13 89 3e
       0.24896777 0.17013083 0.10636888 0.267724
000380 9a 0c 57 be 6f 83 2a bd 73 98 54 bd e8 b2 67 be
       -0.21000901 -0.04162925 -0.0519032 -0.22626841
000390 10 d1 21 be db a3 b9 3d 36 48 0b be 94 84 12 be
       -0.15802407 0.09064456 -0.13601765 -0.14308387
0003a0 86 30 57 3d 29 ef 9f 3d bc df 82 be 0f 86 81 3c
       0.05253651 0.07809288 -0.2556132 0.015810994
0003b0 e5 24 e3 bd 5a f3 14 3e 65 5d af 3c 7c 38 45 be
       -0.110910214 0.14545956 0.021406839 -0.19259828
0003c0 70 c6 9f bd 28 f3 bd bc 14 a9 db 3d e0 90 2d b9
       -0.07801521 -0.023187235 0.107256085 -0.00016552536
0003d0 ca 74 87 be 32 68 8b 3e e0 50 82 3e d5 9d ac be
       -0.2645629 0.27227932 0.25452328 -0.33714166
0003e0 87 27 21 be d2 28 c3 3d c2 56 a7 bd e0 09 91 3e
       -0.15737735 0.0952927 -0.081708446 0.28327847
0003f0 c1 ef c0 3d b5 0a d0 3d a1 ae 81 3e 30 78 8c bc
       0.094207294 0.10158292 0.25328544 -0.017147154

layer_2.bias f4 [96]
000000 ce b4 fc 39 82 c4 3e be 25 d1 0a 3c 9a 9a 55 3c
       0.00048199896 -0.1862965 0.0084727155 0.013037348
000010 a3 7a d1 3d a3 61 84 3e d6 31 4f 3e 43 20 98 bd
       0.10228469 0.2585574 0.20233855 -0.074280284
000020 03 93 94 be c6 10 43 be de cd 1a be 89 2b 4b 3c
       -0.2901841 -0.19049367 -0.15117595 0.012400516
000030 0b da b6 bd 1e 53 52 be 0e e8 e3 bc e7 1f 50 3e
       -0.08928307 -0.20539519 -0.027820613 0.2032467
000040 1b 46 38 be fb b0 8e be 14 c8 80 be a0 87 ae bc
       -0.17995493 -0.278694 -0.25152647 -0.021304905
000050 17 c0 c6 bd 5a db 8a be d7 8c 16 be cd e9 0e be
       -0.09704607 -0.27120477 -0.14702164 -0.13956375
000060 cc 0c 72 be 2f 36 77 3d d0 3c e4 bd ea 4a 9f bd
       -0.23637694 0.060354408 -0.111444116 -0.077779606
000070 40 a1 76 be 59 d8 d7 bd c8 47 17 be d2 b5 ea 3c
       -0.2408495 -0.10539312 -0.14773476 0.028651152
000080 cd b6 d6 3d fc 32 ea 3d 03 14 1c 3e e9 3f c5 bd
       0.10484085 0.11435506 0.15242009 -0.096313305
000090 27 a5 72 3e bd 7e a9 3d 71 ed 44 3e 4b c7 90 be
       0.23695813 0.082761265 0.19231202 -0.28277048
0000a0 82 2a 49 3d 0f 83 06 bd f0 34 0d 3e 07 d4 60 be
       0.049112804 -0.03283983 0.13789725 -0.21955882
0000b0 6f f3 10 be 40 bc df bc e8 a9 11 be c1 c4 09 3c
       -0.14155363 -0.027311444 -0.1422497 0.008408726
0000c0 46 51 0f bb 16 fc 66 be 3a 1e 17 3e dd 04 83 be
       -0.002186851 -0.225571 0.14757624 -0.25589648
0000d0 db 41 24 be 2d 2b 14 bd ec 68 db 3d 0f f7 e9 3a
       -0.16040747 -0.036173988 0.10713372 0.0017850118
0000e0 9c 76 22 bd b1 a6 0c 3d 35 70 99 bc 08 41 cc bd
       -0.039663896 0.034338657 -0.018730262 -0.09973341
0000f0 a8 d6 f5 bd fc be 47 3d cd 66 12 be 28 a8 71 bd
       -0.12003833 0.04876612 -0.14297028 -0.058998257
000100 36 49 4a 3e 51 42 14 be 7f 4b 13 be be ce cf bd
       0.1975449 -0.14478423 -0.14384268 -0.10146855
000110 8b ad 57 3e 97 71 3d 3e 14 62 99 3d 92 3d 87 bc
       0.21062295 0.18500362 0.0748941 -0.016508851
000120 2a 4d 33 3e b2 34 14 be dc 22 7e be 1a dd 54 3e
       0.17509905 -0.14473227 -0.24817985 0.20787469
000130 6c 8a 50 ba e7 85 7c 3e 37 1f 31 be 7c 7e c8 bd
       -0.0007955197 0.24660455 -0.17297064 -0.0978975
000140 a6 f5 8b 3e 34 63 b4 3b 87 87 e9 3d 6e e8 0f 3e
       0.27335852 0.00550499 0.11402803 0.14053509
000150 30 93 57 bc c3 83 c0 3d e9 b1 f7 3c df 73 85 be
       -0.013157651 0.094001316 0.030236201 -0.26064965
000160 02 c8 50 bd 24 8d 55 be 8a ef c1 bd 75 2e f9 bd
       -0.050971992 -0.20854622 -0.094695166 -0.12167064
000170 95 e5 97 bd 60 b8 80 be 4b 88 86 3e 96 12 8d bd
       -0.07416836 -0.25140667 0.26275858 -0.068883106

layer_3.weight f4 [192, 96]
000000 e3 b7 73 bd ec 07 0e 3c 29 41 9b 3d c3 76 a0 3d
       -0.05950154 0.008668881 0.07580788 0.07835152
000010 41 07 14 3d 8d 9e c3 bd c5 76 c8 bd 05 c4 96 bd
       0.03613973 -0.095517255 -0.097882785 -0.073616065
000020 33 be a7 bd 71 0d 4b 38 80 8b d0 3c 22 71 c1 bd
       -0.081905745 4.841149e-05 0.025457144 -0.094454065
000030 29 39 0b bd ad 2a 84 bd 4f 53 36 3d b7 b7 c7 3c
       -0.03399006 -0.06453452 0.044513043 0.024379594
000040 65 4c 36 3c 51 75 9c 3c 68 70 45 b8 30 b3 8a bd
       0.011126612 0.01909891 -4.7073147e-05 -0.067724586
000050 d7 0e df bc 0b fe ce 3d 28 f5 ba bd 45 8c 45 bd
       -0.027228756 0.101070486 -0.09128791 -0.048229475
000060 68 8d 90 bd 7c c5 38 bd 9c 6a ae bd ad 1b 35 bd
       -0.07058221 -0.04511021 -0.08516428 -0.044215847
000070 79 0d 24 bc b4 3b 95 bd 5f 37 cc bd 9d ff 9c 3d
       -0.010012978 -0.07286778 -0.09971499 0.07665942
000080 2f e6 f4 3b 28 fb cf bc cf fa 39 3d fe a0 bf bd
       0.007473729 -0.025388315 0.045405205 -0.09356879
000090 c8 79 a8 3d 7c fa 40 bd 03 d7 6c 3d fb f3 68 bd
       0.08226353 -0.04711388 0.05782224 -0.056873303
0000a0 a3 20 b5 bc 2c 0e e0 bb 7a 00 9c bd c3 c4 ab 3d
       -0.022110289 -0.006837627 -0.076172784 0.08387139
0000b0 4d 26 8c 3d dc a2 78 bd 5d 85 a2 3d af 9d 37 3d
       0.06843243 -0.06070219 0.07935593 0.044828113
0000c0 c9 c4 d8 ba 66 7e 39 3d 0d 0a 53 3d 51 3e e1 bc
       -0.0016538139 0.04528656 0.051523257 -0.027495535
0000d0 98 93 2d 3d dc 19 84 bc 36 c2 32 bd 05 64 a4 bc
       0.042377084 -0.016125612 -0.043642245 -0.020067224
0000e0 4f df 53 bd 4b 27 a9 3d 82 11 c1 3d a8 98 87 3d
       -0.051726636 0.08259448 0.094271675 0.06620914
0000f0 65 1a e0 3c 7e ec a8 bd 2d cc 49 3d cc 3d 69 3d
       0.027356336 -0.08248232 0.049266983 0.0569437
000100 a8 df 97 3c 1b 83 8f bc 14 95 10 bd ff 54 d0 bd
       0.018539265 -0.01751857 -0.035298422 -0.10172462
000110 d9 b5 92 3c 44 11 83 bc d0 74 03 bd 32 81 73 3d
       0.017908977 -0.015999444 -0.032093823 0.059449382
000120 95 bd 63 3d 7b 9c f8 3b b8 a6 9b 3c 36 89 96 3b
       0.05560072 0.0075870133 0.019000396 0.0045939935
000130 5d 1b b0 3d c4 e3 8f 3d 8e b7 5c bc 0c 26 47 ba
       0.08598969 0.07025865 -0.013471497 -0.0007596917
000140 37 31 3d 3d 20 37 cc 3d 7f 0e 31 bd 21 3d 4b bd
       0.046189513 0.09971452 -0.043226715 -0.049618844
000150 96 06 ac 3d 88 39 54 3d 94 2d 34 bc b0 21 a1 bc
       0.08399694 0.05181268 -0.010997195 -0.019669384
000160 48 2d 90 bd 0a 1b b9 3c e9 03 90 bc cd 76 8d bd
       -0.07039887 0.022595901 -0.01757999 -0.06907425
000170 25 d3 2c bd ed e3 78 3d ac 0c c5 bd 76 43 e5 3c
       -0.04219355 0.060764242 -0.096215576 0.02798627
000180 3f 12 9e 3d 73 a9 88 bd 50 6e 0e bd e3 5e 0b 3d
       0.07718324 -0.06672945 -0.03477317 0.034026038
000190 98 dc 88 bb 1b ad b0 3d ab 96 a4 bd 9a ba e0 bd
       -0.0041766874 0.08626767 -0.0803655 -0.109730914
0001a0 6e e4 cc 3d 2d 00 73 bd 69 88 15 bb 51 89 81 bc
       0.10004507 -0.05932634 -0.0022816902 -0.015812548
0001b0 81 92 77 3d 30 75 8b bc 46 36 12 bd 10 6d 9b bd
       0.06044245 -0.017023653 -0.03569629 -0.075891614
0001c0 3f 8f be bd 3e 42 eb bb 16 86 3a 3d e1 32 03 3d
       -0.09304666 -0.0071795275 0.04553803 0.032030944
0001d0 ba c1 1d 3c 19 11 b2 bd cb 57 d1 bc 66 18 3e bd
       0.009628708 -0.08694667 -0.025554558 -0.046409987
0001e0 0c 71 28 bd 25 39 45 3d 0a be 76 3d 0e ac ae 3d
       -0.041123435 0.0481502 0.06023983 0.085289106
0001f0 17 0a ed 3c d5 1c 87 3c ad f3 48 3c 04 91 bd bd
       0.028935475 0.01649324 0.012265128 -0.09256175
000200 5d e1 c2 3d 0e c6 01 3c 1a da e8 3c e7 22 81 3d
       0.09515641 0.007920755 0.028424311 0.06305485
000210 9d 11 c0 3d 28 29 84 3d 9b 52 00 bc 7f ee be bc
       0.093783595 0.064531624 -0.007832195 -0.023307083
000220 dd b0 be 3d 41 b9 81 bd 43 e1 81 bd 3e cf 02 3d
       0.09311078 -0.063341625 -0.063417934 0.031935923
000230 f5 0b 90 3d f1 34 33 3d 6f 89 a2 bd 3b b8 9c bd
       0.070335306 0.04375166 -0.0793637 -0.07652327
000240 ae cb c0 3d ec 07 17 3c 99 8d c6 3d 6a be 00 3d
       0.09413849 0.009218197 0.09694976 0.031431593
000250 4b dd bf 3d 89 07 aa 3d 4e ee 70 3d d5 4b 94 3d
       0.0936838 0.083022185 0.058821015 0.07241026
000260 99 63 42 3b da b1 be bd 5d 9f 25 3d a2 09 97 3c
       0.0029661416 -0.09311266 0.040435184 0.01843721
000270 65 b2 b4 bd dc 0e b5 bd 03 8b 9a bc 46 51 45 3c
       -0.088230886 -0.08840725 -0.018865114 0.012043303
000280 b9 f1 69 bd d3 05 db bc b0 41 55 3d 32 13 07 bc
       -0.05711529 -0.026736176 0.052064598 -0.008244323
000290 23 11 51 3b 86 88 7f bd 93 c5 ac 3d 1b b7 23 bd
       0.0031901083 -0.06238606 0.08436122 -0.039969545
0002a0 ee 8b 63 3c ce ad 0d bd 03 34 bb 3c dd ea 5f 3c
       0.013888342 -0.03458958 0.02285195 0.013666836
0002b0 1f e7 28 3d f0 22 78 3d 30 ef 0a bd 3f 6e b9 bd
       0.04123604 0.060580194 -0.033919513 -0.09054231
0002c0 f6 34 87 bd 2f df 41 bc fb 03 ec bc 9d 89 26 bc
       -0.06601898 -0.011832996 -0.028810492 -0.0101646455
0002d0 63 93 72 3d 5e 4a c5 bd 43 05 c1 3d 20 24 b4 bd
       0.05922259 -0.09633325 0.09424832 -0.08795953
0002e0 8a ab b8 3b 9e a0 ac bc ef f7 d0 3d 7a ef b0 bd
       0.0056356834 -0.021072682 0.102035396 -0.086394265
0002f0 86 f5 22 bd 3a 54 37 3a 75 c3 68 bb ed be 9f bd
       -0.03978493 0.0006993447 -0.0035516892 -0.07800088
000300 0d 88 96 3d af 30 c8 3c 2a 7b a1 3d 7c 33 c1 3c
       0.073501684 0.024437277 0.0788482 0.02358412
000310 96 5d 94 bd 0c a6 c3 3c 59 5a 4a bd 8e 07 3f bd
       -0.072444126 0.023882888 -0.04940257 -0.046638064
000320 3b a7 bf bc 19 8a 0f bd 46 59 62 3d a0 18 a6 3d
       -0.023395171 -0.03504381 0.05526092 0.081101656
000330 c7 21 1d bd 4f 9e be 3d ce 32 b5 bb 91 0a a1 3d
       -0.03836229 0.09307539 -0.005529738 0.078633435
000340 d4 1d 89 3c a9 52 d6 3c 56 c2 ae 3d 05 45 a6 bd
       0.016737856 0.026162462 0.085331604 -0.08118633
000350 b9 b5 c6 bd f2 9b 8b bc 5f 42 59 bc 39 de 14 3d
       -0.097026296 -0.017042134 -0.013260453 0.03634474
000360 3f d0 36 bd a8 8b 18 3d 35 1c ae bd ce d9 a2 3d
       -0.044632193 0.03724256 -0.08501474 0.07951699
000370 da 74 31 bd f0 3d 45 bc 28 02 36 3d f5 a1 85 3d
       -0.04332433 -0.012038693 0.04443565 0.065250315
000380 19 95 33 bd c9 77 b3 bd ea ea 0b bd 1b 5c 8d 3d
       -0.043843362 -0.087630816 -0.03415958 0.06902333
000390 64 b6 22 39 dc ab 52 bd 46 08 a2 3c e6 ba a5 3b
       0.0001551747 -0.05143343 0.019779336 0.0050576804
0003a0 30 eb ac bd 49 5c 14 bd 0d 8f 21 3d fa 82 59 bc
       -0.08443296 -0.036220822 0.039443064 -0.013275856
0003b0 f1 2d a9 3b ec c1 19 bd a3 18 b4 3d 6d b9 b5 bb
       0.0051629473 -0.037538454 0.087937616 -0.005545786
0003c0 27 9b a2 3d 12 8f eb bc 11 7a 6d bd 1d 1f ba bd
       0.07939749 -0.028754745 -0.05797774 -0.09087966
0003d0 1a f2 20 bd a3 33 50 3d d7 9a c4 bd 37 99 bf bd
       -0.039293386 0.050830495 -0.09599846 -0.09355395
0003e0 09 e1 6d bd f7 a2 83 bd 24 1a 17 bb 76 3a 83 3d
       -0.05807594 -0.064275675 -0.0023056353 0.06407635
0003f0 46 54 3d 3d 61 29 82 3d 6e 13 05 3d 92 d0 8f bc
       0.046222948 0.06355549 0.032489233 -0.017555509

layer_3.bias f4 [192]
000000 ed 4c b6 bd 8f ee b1 3d 2e d1 c0 bd 61 df 53 3b
       -0.08901391 0.086880796 -0.09414898 0.003232919
000010 f6 5d 0f bd 1a c4 e7 3a 42 92 82 3d c7 e3 8f bd
       -0.035001718 0.0017682344 0.06375553 -0.07025867
000020 93 58 44 3d e7 d5 d4 3d 04 5f 51 3d 7c 4b 3a bd
       0.047936033 0.10392361 0.051116005 -0.045482144
000030 85 0e df bc 36 8e 23 bb 91 ed d3 3d 4a 7b 35 3d
       -0.027228603 -0.002495659 0.103480466 0.04430703
000040 84 56 ec 3c 7f a5 55 3d 54 66 01 bd 4a 2d e9 bd
       0.028849848 0.052159782 -0.03159173 -0.11385591
000050 94 eb 0e bc e8 e8 17 3d e7 df 11 bb e1 2f 66 3c
       -0.008723158 0.03708735 -0.00222587 0.014049501
000060 13 6e 55 3d 42 eb a1 3c 0c e1 27 3d 58 d2 19 3c
       0.052106928 0.0197655 0.040986106 0.009388529
000070 c2 c9 80 3c ec 2e 92 3d 25 4d c8 bd e4 67 b7 3d
       0.015721206 0.07137856 -0.09780339 0.089553624
000080 8e c3 85 bd 6d 28 46 bd 1d c6 a9 3d 83 f0 43 3d
       -0.0653144 -0.048378397 0.0828974 0.04783679
000090 ee 65 de 3d 53 10 0f 3d bd 7a cc bd 17 a4 74 3c
       0.10859285 0.034927677 -0.09984348 0.0149317
0000a0 a4 c6 f4 3b 74 e3 23 bd 92 35 85 bd 1f 99 d8 3b
       0.007469969 -0.040011838 -0.06504358 0.0066100503
0000b0 7a 68 95 bd e9 d1 92 3c db 5f 94 3d d0 b6 88 3d
       -0.07295318 0.017922359 0.072448455 0.06675494
0000c0 3b bc 71 bd 35 95 bc 3c c9 aa 70 3d 38 d2 36 3d
       -0.0590174 0.023020366 0.058756623 0.044634074
0000d0 9a ea 66 3d f2 3a 47 3d 14 9d 16 3d 08 24 8f bc
       0.056376077 0.0486402 0.036770895 -0.017473236
0000e0 e2 05 b4 bc e8 ad bb bd 8d 2d f0 3d 5b 45 25 3d
       -0.021975461 -0.09164029 0.11727438 0.040349346
0000f0 6d 08 91 3d fa b3 f9 3c 7a 1b b0 3d ef 1d 22 bd
       0.07081685 0.030481327 0.08598991 -0.03957933
000100 90 0a 99 3d b3 ce 68 3d a9 cf c3 3c ac d9 4f bc
       0.07472718 0.05683775 0.023902731 -0.012686174
000110 05 49 ab 3d 86 26 d3 bc e1 35 c1 bc 21 0e 9a bb
       0.08363537 -0.025775205 -0.023585262 -0.0047013913
000120 87 e2 3e 3d e8 ca c5 3c cd a7 b7 3d f7 87 82 bd
       0.046602752 0.024144605 0.08967552 -0.063735895
000130 37 46 3d 3c 25 82 f5 bc bf 01 f2 3d 25 c9 8a bd
       0.011552385 -0.029969284 0.11816739 -0.067766465
000140 1d 0f 53 3d 19 1b 69 3a f4 0b 4a 3b b0 15 c3 3b
       0.051528085 0.00088922825 0.0030829879 0.005953513
000150 8e e6 96 bc b8 15 1c bc fb 49 47 3d 6d bc b8 bd
       -0.018420484 -0.0095266625 0.048654538 -0.09020314
000160 f3 17 9c bd 46 b8 b2 3d 3b 01 30 3d 3c 60 35 bd
       -0.076217555 0.087265536 0.042969923 -0.04428123
000170 60 f4 99 3d 3c 8b 11 3d 77 21 67 3c 51 b7 48 3d
       0.07517314 0.035533175 0.0141071 0.04900295
000180 a8 a7 ad 3c 48 91 a9 3d c4 a8 8e bd b0 4f 2d 3d
       0.021198109 0.08279663 -0.06965783 0.042312324
000190 e5 5c 03 bd 33 34 43 3d ee ce ae bd e4 bb 82 bc
       -0.032071013 0.047657203 -0.085355625 -0.015958734
0001a0 6a f7 72 3d c5 aa 44 3d 96 c7 a6 bd b0 be 20 bd
       0.059317984 0.04801442 -0.08143537 -0.039244354
0001b0 a9 c0 b9 bc af 19 b2 bc ec 50 ba bc ce e8 3c 3c
       -0.022674875 -0.021740763 -0.022743665 0.011530114
0001c0 1e 74 68 3b e3 4b b6 bd 4c cf ca 3a a9 04 c6 3d
       0.0035469602 -0.08901193 0.0015473156 0.096688576
0001d0 53 3a a3 3b c7 1b d5 3d cf 1c 02 3d 1e db 8f 3d
       0.004981318 0.10405689 0.031765755 0.07024215
0001e0 ef ad b8 3c 04 36 90 bd 4a 81 79 3d bb 9e 08 3e
       0.022543876 -0.07041553 0.060914315 0.13341801
0001f0 97 7c 99 bd af c9 d5 3c 6f c4 91 bc a1 83 44 3d
       -0.07494467 0.026097147 -0.017793862 0.047977094
000200 bd 19 c2 3c c5 8f 44 bd 7c b9 0a bd 62 ed a5 3c
       0.023693914 -0.04798867 -0.033868298 0.020254795
000210 b7 50 3c bc 85 d3 15 bd a1 81 4d 3d ff 23 89 3c
       -0.011493853 -0.036578674 0.050172452 0.016740797
000220 21 65 a1 bd f2 ac ae 3c 94 d3 b6 bc cc 82 34 bc
       -0.07880617 0.021322701 -0.022317685 -0.0110175125
000230 57 90 79 3d 3a 86 8c 3d 8a 77 ea bc ab d2 b2 bd
       0.06092867 0.06861539 -0.028621454 -0.08731588
000240 27 16 7c 3d 61 20 b6 bd 9c 17 bd bb 9f 86 88 bd
       0.061544564 -0.088928945 -0.0057706367 -0.06666302
000250 de 6d 21 3d 06 96 86 bd ef 27 47 bd 4c ea e9 3d
       0.03941142 -0.065715834 -0.048622068 0.11421642
000260 f5 4d 9a bd b5 6f bf 3d 24 ac a6 bd 5f c1 9a bd
       -0.075344004 0.09347478 -0.08138302 -0.07556414
000270 d1 e9 c2 bd c9 4e 96 3d a9 6d 91 3c 65 aa cf 3d
       -0.09517253 0.07339246 0.017752485 0.10139922
000280 9a 15 95 bd 15 40 f8 3c 05 07 bc bd 6e 99 89 3d
       -0.07279511 0.030303994 -0.09181026 0.067187175
000290 ce 2d 83 3d ef c2 88 bd 92 a5 1c bd 36 d6 51 3d
       0.06405221 -0.06677806 -0.038243838 0.051229678
0002a0 e6 a4 cf 3b a9 87 ac bd 93 58 4b bd 0c 29 5c 3d
       0.006336796 -0.084243126 -0.049645018 0.053750083
0002b0 e6 8d 38 bb 92 9b 29 bd 3f 21 11 3d a7 c6 7e 3c
       -0.002816075 -0.04140813 0.035432097 0.015550292
0002c0 d8 d8 18 3d f4 81 e0 3d ef 4e 55 3d 27 e0 86 3d
       0.037316173 0.109622866 0.05207723 0.065857224
0002d0 ac 8c 03 bd af 33 19 3d 49 52 a6 3d d1 8b c5 3d
       -0.032116577 0.037402805 0.081211634 0.096458085
0002e0 d0 aa 8d 3d 12 81 d6 3d c6 8e 61 bd 40 f0 7d ba
       0.069173455 0.10473837 -0.0550678 -0.0009686984
0002f0 2a 3e 4b 3d 3d 8c c9 bb ac 21 9b 3d f3 d3 b1 3d
       0.04961983 -0.006150751 0.07574782 0.08683004

layer_out.weight f4 [1, 192]
000000 16 e5 8b bd 06 6b a8 3d 27 5a 86 3d 90 e6 d0 3d
       -0.06830804 0.08223538 0.06560164 0.10200226
000010 26 4c 25 bd 51 3a e2 3d d3 b5 85 3c fc 9e f6 3a
       -0.040355824 0.11046279 0.016322052 0.0018815692
000020 e1 cc 98 bd ae b9 8d be 96 2b 8c 3d 1a 72 28 bd
       -0.074609526 -0.27680725 0.06844251 -0.04112444
000030 91 1e 2f 3c 79 ab a0 bd 96 47 a5 3d 19 f1 9b 3d
       0.01068844 -0.07845206 0.080702946 0.07614345
000040 a1 fe 29 bd a2 2d 54 3d 4d 48 11 bd 99 5e 20 3e
       -0.0415026 0.05180133 -0.035469342 0.15661086
000050 f9 dd 6e bd fe 58 8d bd d7 c6 c7 ba 63 fc 24 bd
       -0.05831716 -0.069017395 -0.0015241754 -0.040279757
000060 8a 80 ba 3c 60 d9 99 3d bb 88 a4 be 41 c4 90 bd
       0.02276637 0.07512164 -0.32135567 -0.070686825
000070 70 a5 5d 3d 50 c4 f8 3d 74 ac 90 bc 11 47 74 3d
       0.05411285 0.12146819 -0.017660357 0.059638087
000080 b8 29 3a bd 44 78 94 3c 73 ef c3 3d 84 1b 63 3d
       -0.045449942 0.018123753 0.09567156 0.055446163
000090 ee e9 35 3e ed bc 05 3e b3 5e e0 bb 36 3e 0e bd
       0.17765018 0.1306035 -0.0068472265 -0.034727298
0000a0 4f 1f 9d bd 11 65 f9 3c 65 d5 7d 3d be 5d 99 bd
       -0.07671987 0.0304437 0.061971087 -0.07488583
0000b0 8b 9b 00 3e aa 54 64 3c 02 29 7e 3c b9 34 50 bd
       0.12559335 0.013936201 0.015512707 -0.05083153
0000c0 77 cd 7b bd b3 ad 01 bd c9 f1 36 3d b4 cd fd 3c
       -0.061475243 -0.031659793 0.044664178 0.030981876
0000d0 76 e9 02 3d a9 a6 c2 3d d5 24 37 3c d6 3f 4a bd
       0.031960927 0.09504444 0.011178215 -0.049377285
0000e0 f1 13 d6 3d 57 b9 91 3d ec 96 84 be f6 74 05 be
       0.10453022 0.07115429 -0.25896394 -0.13032898
0000f0 bb 0c 01 bd 78 da d3 bd f7 18 65 be bf 19 36 ba
       -0.03150628 -0.10344404 -0.22372805 -0.00069465855
000100 b7 83 60 3d 26 07 d2 b9 31 b0 86 be 1b f1 92 3d
       0.054813113 -0.00040059647 -0.26306298 0.071748935
000110 f8 3b e9 3d f0 ef 78 3c b7 0f 41 bc fd 65 a1 3d
       0.11388391 0.015193924 -0.011783532 0.07880781
000120 17 6b e8 3c 15 3a a5 3c 4d af 33 3e eb 1a b4 bd
       0.028371377 0.020169297 0.1754734 -0.08794197
000130 aa be 56 bb 14 1b 8c 3b 12 f3 2c 3e 7c 39 b0 3c
       -0.0032767453 0.004275689 0.16889599 0.021511786
000140 5d 4f c6 3c 36 59 29 3d eb 59 28 be f6 66 eb 3c
       0.024207765 0.041344844 -0.16440551 0.028735619
000150 f1 53 36 bd 7e 42 79 3d fe c7 9d 3c 17 24 3f bd
       -0.044513647 0.060854428 0.019260403 -0.046665277
000160 b7 11 80 3d 64 36 05 3e 8e b9 c3 3d 61 57 a4 3d
       0.06253379 0.1300903 0.09556876 0.08024479
000170 52 f9 24 3e 2e 97 88 bc 14 95 01 3d 21 2a 9b 3c
       0.16110733 -0.01667365 0.031636313 0.018940987
000180 fb a5 c6 bd 02 86 ca 3d 64 7b a9 3d 84 5a fb 3d
       -0.09699627 0.09888841 0.08275488 0.12273124
000190 e5 68 c2 3d 10 52 64 bd 55 e5 19 bb 7c 0f 86 3c
       0.09492663 -0.055742323 -0.002348264 0.016364805
0001a0 a7 59 5d 3d 54 31 7e bb f4 44 6c 3d f5 5b 5c 3c
       0.054040577 -0.0038786726 0.057682946 0.013449659
0001b0 d3 47 47 bb 11 c7 67 bd 5d 56 70 3d 6f 3d f0 bd
       -0.00304078 -0.05658633 0.058676112 -0.117304675
0001c0 35 32 6d be 67 58 49 bd c5 24 7f bd 81 d0 1a 3e
       -0.23163684 -0.049156573 -0.062290926 0.151186
0001d0 5b 7f 3d bd be 8b 2c 3e 4d fd 85 3d 54 a5 9a bc
       -0.046264034 0.16850182 0.06542454 -0.018877663
0001e0 8d 6a 9e 3c 05 77 71 bd 70 2e 57 bd 84 f9 67 3e
       0.019337917 -0.058951396 -0.05253452 0.22653776
0001f0 9e 6a 7b 3d 88 d1 52 bd ba 99 13 bd 85 4e 49 bd
       0.061380975 -0.051469356 -0.036035277 -0.049147148
000200 dc f4 7a bd 8f e8 7f 3d b9 eb c3 3d 9a 61 98 bd
       -0.061268672 0.062477645 0.09566445 -0.07440491
000210 0b 05 57 bd 70 87 57 3c ef ee df 3d c3 ac cf 3c
       -0.052495044 0.013154849 0.10934245 0.025350934
000220 fc f8 19 bd 59 b4 82 3d f9 07 68 bd d9 f8 30 3d
       -0.037590966 0.06382055 -0.05664823 0.04320607
000230 7f 26 c4 bb b3 9e 2f 3d 5b 1a 1c 3b 88 2f d6 bb
       -0.0059860344 0.042875957 0.002381942 -0.006536428
000240 ff ca f8 bc 4e f2 7d 3a 33 ec ad bd 64 f2 e7 3d
       -0.030370234 0.00096872903 -0.08492317 0.11325529
000250 1b 23 51 bd 33 07 cf 3d 2d 2f 8c 3d 25 e0 5c 3e
       -0.05105887 0.10108795 0.068449356 0.2156988
000260 13 4c c6 3d 3b 3b 78 bd f3 79 e9 bd ac f6 7e bd
       0.09682479 -0.06060336 -0.11400213 -0.062246963
000270 58 0b 1b be 61 a2 14 be e8 dd 14 bd 48 48 00 3e
       -0.15141046 -0.14515068 -0.03634444 0.12527573
000280 28 0e 60 3d 45 81 38 be 73 50 22 bd 20 39 f4 bd
       0.054701 -0.18018062 -0.039627504 -0.11924958
000290 67 8d 12 be 88 d8 87 3c 46 84 8d bd a4 d7 ad 3d
       -0.14311753 0.016582742 -0.06909995 0.08488396
0002a0 f9 52 b8 3d 62 a7 62 3c 94 ab 89 3d d8 dc 1b 3e
       0.09000201 0.0138338525 0.06722179 0.15220964
0002b0 4f 1c 67 3d 79 e3 c5 bc 57 1a 36 bd dc eb 28 bd
       0.05642348 -0.024156319 -0.044458713 -0.041240558
0002c0 b5 95 9d 3d e2 e9 0d 3e 76 98 36 bd 4a 35 f5 bc
       0.0769457 0.1385875 -0.04457899 -0.029932637
0002d0 e0 91 ac 3c 15 ca 2b 3d b5 b0 01 3e 63 54 b3 3d
       0.021065652 0.041940767 0.12665065 0.0875633
0002e0 b4 01 18 be 1b 7b 11 3e ee 34 88 bd 11 48 91 3d
       -0.148444 0.14207117 -0.066507205 0.07093824
0002f0 de b1 95 3d 1a 4c 48 bd 13 12 0d 3e f1 89 d4 3d
       0.07309316 -0.0489007 0.13776426 0.10377873
